official_tutorials_60_min/cifar_net.pth (torch_old, 249582 bytes, 10 tensors)

conv1.weight f4 [6, 3, 5, 5]
0	0x3dc2358a	0.09482868
1	0x3d300220	0.042970777
2	0x3e178e9f	0.148005
3	0x3ea370ac	0.319219
4	0x3d46a448	0.048496515
5	0x3ed2df67	0.41186067
6	0x3f297375	0.661918
7	0x3f2fd42c	0.68683124
8	0x3eefc567	0.46830294
9	0xbe110772	-0.14162996
10	0x3e43aeae	0.19109604
11	0x3eb9c426	0.36282462
12	0x3f081b69	0.53166825
13	0x3e29fa96	0.16599497
14	0x3d7c531f	0.061602708
15	0xbee5ac45	-0.44857994
16	0xbf26f7d5	-0.6522191
17	0xbf3626a0	-0.7115269
18	0xbf16fca2	-0.5897924
19	0xbe2b3563	-0.16719584
20	0xbe43f7b9	-0.19137467
21	0xbeacd5fc	-0.33757007
22	0xbe4465a6	-0.19179401
23	0xbe0bc2a1	-0.13648464
24	0x3a0bd563	0.00053342263
25	0xbe87e200	-0.26539612
26	0xbe7ebaad	-0.24875899
27	0xbbf225ce	-0.0073897606
28	0xbe0c2aa5	-0.13688143
29	0xbd8f3868	-0.069931805
30	0x3ca77250	0.02044025
31	0x3e2afe27	0.16698514
32	0x3e9a52c4	0.3014127
33	0x3e0ca18e	0.13733503
34	0xbe3a3b73	-0.1818674
35	0x3d66af94	0.056319788
36	0x3e20213c	0.15637678
37	0x3e1b18a2	0.15146115
38	0xbe301380	-0.17194939
39	0xbe06c6c8	-0.13161767
40	0xbe835de0	-0.25657558
41	0xbf189b93	-0.5961239
42	0xbf518cfd	-0.81855756
43	0xbf2276f0	-0.63462734
44	0xbc95ead5	-0.018300453
45	0x3e5c36fa	0.21505347
46	0x3dd1bf3b	0.102415524
47	0x3e088d72	0.13335207
48	0x3ee1fe07	0.4413912
49	0x3eca662c	0.39531076
50	0xbe72a9a6	-0.23697528
51	0xbeae3850	-0.34027338
52	0xbdf929cb	-0.121661745
53	0xbdac1e08	-0.084041655
54	0x3dea57ea	0.114425495
55	0x3d95b3fb	0.07309719
56	0x3e0c3301	0.13691331
57	0x3e054705	0.13015373
58	0x3db0a8e3	0.086259626
59	0xbe61a238	-0.22034538
60	0x3d7f15f0	0.06227678
61	0x3ea0be83	0.3139535
62	0x3ecada95	0.3961989
63	0xbdc0de07	-0.09417348
64	0x3d5e38e5	0.054253478
65	0xbde0ce83	-0.10976889
66	0xbe591de6	-0.21202812
67	0xbf0406f6	-0.5157312
68	0xbedf215c	-0.4358014
69	0xbbe0bb50	-0.006858267
70	0x3e906baa	0.2820714
71	0x3e7b25c2	0.24526122
72	0x3ea7a25f	0.32741067
73	0x3ebfdaad	0.37471524
74	0x3eec6c1c	0.4617623
75	0xbe24930a	-0.16071716
76	0x3e38b13e	0.18036363
77	0x3d97046c	0.0737389
78	0xbc165c55	-0.009177287
79	0xbd653530	-0.055958927
80	0xbd0ed7b0	-0.034873664
81	0xbde324e9	-0.110910244
82	0xbe4f3e2f	-0.20238565
83	0x3ee35b4f	0.444056
84	0xbcbc9030	-0.023017973
85	0x3e1fd676	0.15609154
86	0xbe5b90b2	-0.21441916
87	0xbf3198d4	-0.6937382
88	0x3ee9917d	0.4561881
89	0x3e997bb0	0.2997718
90	0x3ed06815	0.40704408
91	0x3d3a45c1	0.04547668
92	0xbf9366a3	-1.1515697
93	0x3e503c04	0.20335394
94	0x3f1ffa84	0.6249163
95	0x3e5dcbea	0.21659818
96	0x3e972f40	0.29528236
97	0xbf71f1fb	-0.9450986
98	0xbe37182d	-0.17880316
99	0x3e8243e8	0.25442433
100	0xbe22dd25	-0.15904672
101	0x3d6d9bb0	0.058009803
102	0xbe1263f4	-0.14295942
103	0xbdc28bda	-0.09499331
104	0x3cb2daf5	0.021832922
105	0x3cfc327d	0.030785793
106	0xbd80f155	-0.062960304
107	0xbe7baf8a	-0.24578682
108	0x3e7034a0	0.23457575
109	0x3d5079f0	0.05089754
110	0x3eb1f2e4	0.34755623
111	0xbd83ae76	-0.0642976
112	0xbf66ad69	-0.9010835
113	0x3eb7852d	0.35843793
114	0x3ead176f	0.3380694
115	0x3efcaa43	0.4934865
116	0x3df3f3dd	0.119117476
117	0xbfaa797b	-1.3318323
118	0x3e89d2f7	0.26918766
119	0x3f0e078d	0.5548027
120	0x3ecf6e84	0.40514004
121	0x3ed72ac4	0.42024815
122	0xbf3eef65	-0.7458404
123	0xbe1607cc	-0.14651412
124	0x3e9a431c	0.30129325
125	0xbdd0bf89	-0.101927824
126	0x3dc71643	0.09721043
127	0xbd94e19a	-0.072695926
128	0x3d726130	0.059174716
129	0xbdd2a6ac	-0.102856964
130	0x3d1b4143	0.037904035
131	0xbb7837c0	-0.0037875026
132	0xbe56e8d2	-0.20987251
133	0x3ed76384	0.42068112
134	0xbcd8475f	-0.02640122
135	0x3ece0939	0.4024141
136	0xbddff067	-0.10934525
137	0xbf5cfc4b	-0.8632247
138	0x3f00b598	0.5027709
139	0x3dade33a	0.08490606
140	0x3eb94e47	0.36192533
141	0x3e3d4239	0.18482293
142	0xbf8c167a	-1.0944359
143	0x3e3d9ec6	0.18517599
144	0x3eefe6d4	0.46855795
145	0x3ec4a3e9	0.38406304
146	0x3f07dd6d	0.53072244
147	0xbf3a22bb	-0.72709244
148	0xbe4801e8	-0.19531977
149	0x3c7a1e01	0.015265943
150	0xbc8584c5	-0.016298661
151	0xbdc8c51c	-0.09803221
152	0xbd8412a6	-0.064488694
153	0xbd226934	-0.03965111
154	0x3d7e02de	0.062014453
155	0xbd99d999	-0.075122066
156	0xbd25eb12	-0.040507384
157	0x3e88bb37	0.26705334
158	0x3e4bd8ef	0.19906972
159	0x3dc622a4	0.09674576
160	0x3d3dac35	0.046306808
161	0x3e496991	0.19669177
162	0x3e45698d	0.19278546
163	0x3de0da8c	0.109791845
164	0x3dcf38ba	0.101182416
165	0xbcaf429a	-0.021394063
166	0x3e1dc570	0.15407348
167	0x3e53575c	0.20638794
168	0x3dbd0e67	0.09231263
169	0xbc9a8ee3	-0.018866962
170	0xbbd05860	-0.0063581914
171	0x3e51dfe3	0.20495562
172	0x3e0c1e7a	0.13683501
173	0xbe2dc887	-0.16971026
174	0x3bef12cf	0.0072959433
175	0xbe4d4ec9	-0.20049585
176	0xbe1148f4	-0.14187986
177	0xbdbd6f2d	-0.09249721
178	0x3dce52e2	0.100744024
179	0x3df777d9	0.12083406
180	0xbe652697	-0.22378002
181	0xbe2a4527	-0.16627942
182	0xbc69dd76	-0.014273992
183	0x3e67f58f	0.22652267
184	0x3e146286	0.14490709
185	0xbe968b35	-0.29403082
186	0x3c5d3a7f	0.013502716
187	0x3d9be8de	0.07612775
188	0xbd8714be	-0.06595753
189	0xbde6e1aa	-0.11273511
190	0xbda31df7	-0.079647
191	0xbcaae1e1	-0.02085966
192	0xbd317146	-0.043320917
193	0xbd6f6c13	-0.058452677
194	0xbd813536	-0.06308977
195	0xbda0babd	-0.078481175
196	0xbd943901	-0.07237435
197	0xbe1007ab	-0.14065425
198	0xbe5bd94a	-0.21469608
199	0xbe922eee	-0.2855143
200	0xbe92675d	-0.28594485
201	0xbe564282	-0.20923808
202	0x3e1dfaf5	0.15427764
203	0x3ee14f8f	0.4400601
204	0x3e898546	0.26859492
205	0xbe85e5a2	-0.26151758
206	0xbd4ecbcc	-0.050487325
207	0x3e7c61d9	0.24646701
208	0x3e8e6caa	0.2781728
209	0x3e301041	0.171937
210	0xbe32149c	-0.17390674
211	0xbd7cb919	-0.06169996
212	0x3e3a0425	0.18165644
213	0x3e9bf774	0.3046223
214	0x3e338c37	0.17533956
215	0xbd6fad3e	-0.058514826
216	0x3d95c1c0	0.073123455
217	0x3e77b66d	0.24190684
218	0x3e28f9c0	0.16501522
219	0x3dac8191	0.0842315
220	0xbba2951a	-0.004961622
221	0x3e246d43	0.16057305
222	0x3e006747	0.12539397
223	0x3e6a93b6	0.2290791
224	0x3e27f260	0.16401052
225	0xbe3ab32e	-0.18232414
226	0xbe690a99	-0.22757949
227	0xbf0d834f	-0.55278486
228	0xbf045005	-0.516846
229	0xbce8d003	-0.0284195
230	0xbdffeccf	-0.124963395
231	0x3e1d6d46	0.15373716
232	0x3d0f3feb	0.034973066
233	0x3d491cd9	0.049099777
234	0xbe1d93e8	-0.15388453
235	0xbbe630f4	-0.0070248786
236	0xbdd3f5b5	-0.10349599
237	0x3ebf93cb	0.37417445
238	0x3eb2b367	0.34902498
239	0xbe061609	-0.13094343
240	0xbd971e9c	-0.07378885
241	0xbe23d074	-0.15997487
242	0x3cadafeb	0.021202048
243	0xbdbb4451	-0.0914389
244	0x3da73b69	0.081656285
245	0x3e720564	0.23634869
246	0x3e08ce3f	0.13359927
247	0xbe56db64	-0.20982128
248	0xbe8be4be	-0.27322954
249	0x3db99375	0.09061328
250	0x3e875edd	0.26439562
251	0x3d0f232f	0.034945663
252	0xbe75445d	-0.2395186
253	0xbdb82501	-0.08991433
254	0x3e92ced4	0.28673422
255	0x3e70eb3c	0.23527235

conv1.bias f4 [6]
0	0xbeae499b	-0.34040532
1	0xbeafd694	-0.34343398
2	0x3e2f0ea9	0.17095436
3	0x3bcfec6b	0.006345322
4	0x3e4f400f	0.2023928
5	0xbf5fb99e	-0.87392604

conv2.weight f4 [16, 6, 5, 5]
0	0xbda1f373	-0.079077624
1	0xbd9f4665	-0.077770986
2	0xbe0a265f	-0.134912
3	0x3c5e4801	0.013566972
4	0x3d95cecb	0.07314833
5	0x3d4415ea	0.04787246
6	0x3cc8991e	0.024487074
7	0x3dc7b636	0.09751551
8	0x3dccd7cb	0.10002097
9	0x3d138a9e	0.036020868
10	0xbd691c6b	-0.056911867
11	0x3be65361	0.0070289825
12	0x3e0e9b71	0.13926484
13	0x3c0cc73d	0.008592424
14	0x3cde3c66	0.02712841
15	0xbd3c7c5f	-0.046017047
16	0xbe5342ba	-0.20630923
17	0xbdddefc5	-0.10836748
18	0xbe3769a6	-0.17911395
19	0xbe8c3221	-0.27381995
20	0x3c34f709	0.011045226
21	0xbd9d6d6d	-0.07686887
22	0xbd6350f1	-0.055497114
23	0xbe005751	-0.12533309
24	0xbe9cfd2a	-0.306619
25	0x3d2a3d52	0.041562386
26	0xbd5f2d83	-0.054486763
27	0x3d20ba17	0.03923997
28	0xbd874dd9	-0.06606645
29	0xbd596979	-0.053079102
30	0x3dd5c25f	0.10437464
31	0xbdfcb2c6	-0.12338786
32	0x3e5718e1	0.21005584
33	0x3e0a9439	0.13533105
34	0x3d2374a1	0.039906148
35	0xbb27cb4d	-0.0025603354
36	0xbdb18454	-0.08667818
37	0x3e8dec98	0.2771957
38	0xbcd4e334	-0.025987245
39	0xbe11ef23	-0.1425138
40	0xbd897aeb	-0.06712898
41	0xbe1a179f	-0.15048073
42	0x3e4e92a9	0.20173134
43	0xbe2a2f03	-0.16619496
44	0xbe6f931c	-0.23395962
45	0xbe197ae2	-0.14988282
46	0xbe4e6efb	-0.20159523
47	0x3d2f63a4	0.042819634
48	0xbeadd3c3	-0.33950624
49	0xbea276dc	-0.31731308
50	0x3cfbc2c2	0.030732516
51	0x3eaea466	0.341098
52	0x3ed9b575	0.42521253
53	0x3e7bf40e	0.24604818
54	0x3e637f0f	0.22216438
55	0x3e476994	0.19473869
56	0x3e8bcc17	0.27304146
57	0xbd4f8c8b	-0.05067114
58	0x3d207342	0.03917242
59	0x3d07b094	0.033127382
60	0x3e1003a3	0.14063887
61	0x3d4937f2	0.04912562
62	0xbe1572ba	-0.14594546
63	0x3dd39cd2	0.103326455
64	0x3d8b8ea8	0.06814319
65	0x3e2f87d6	0.17141661
66	0xbe053b12	-0.13010815
67	0xbe23ccdb	-0.15996115
68	0x3e34cd99	0.17656554
69	0x3b70b9a5	0.0036731747
70	0x3dcc4bc7	0.09975391
71	0x3c597d49	0.013274499
72	0xbdfa73d5	-0.122291245
73	0x3e1ab302	0.15107349
74	0xbd9ef68e	-0.0776187
75	0x3dde21d3	0.10846295
76	0xbc1e98ff	-0.009680032
77	0x3e08b41c	0.13349956
78	0x3e141d50	0.14464307
79	0x3e3527be	0.17690942
80	0x3e012d10	0.12614846
81	0x3d323a91	0.043512885
82	0xbc5c1161	-0.013431878
83	0xbd9e5211	-0.07730497
84	0xbde4ab73	-0.11165514
85	0x3e2e7964	0.17038494
86	0xbd707dc5	-0.058713693
87	0xbdcf5153	-0.10122933
88	0xbe24ed2b	-0.16106097
89	0xbd618ed3	-0.05506785
90	0x3ce26db2	0.027640197
91	0xbdbe8e5a	-0.09304495
92	0xbe6adcc1	-0.22935773
93	0xbe54358c	-0.20723552
94	0xbe84c493	-0.25931224
95	0xbc7e3f04	-0.015517954
96	0xbe03789c	-0.12838978
97	0xbd4ab26f	-0.049486574
98	0xbe334ce9	-0.17509808
99	0xbdb46ce3	-0.08809831
100	0x3ea651c6	0.32484263
101	0x3ccfea5a	0.025380302
102	0xbca6e97c	-0.020375006
103	0x3de2a805	0.110672034
104	0x3e9a85be	0.30180162
105	0x3bdb6751	0.006695666
106	0xbdafcf08	-0.0858441
107	0xbe63d0cf	-0.22247623
108	0xbdaa0c77	-0.08303159
109	0xbdcdf0a9	-0.10055668
110	0xbcb345bb	-0.021883836
111	0xbe3ddad0	-0.18540502
112	0xbe23898a	-0.15970436
113	0xbd83dcc0	-0.06438589
114	0xbe28399e	-0.16428229
115	0xbb93f296	-0.0045150025
116	0xbdf9385a	-0.12168951
117	0xbe3bf58c	-0.18355387
118	0xbe004033	-0.1252449
119	0xbe2ea9a4	-0.170569
120	0x3dcb024e	0.09912549
121	0x3a9f9cdf	0.0012177489
122	0xbb947b6a	-0.0045313137
123	0xbd6c78ed	-0.05773251
124	0x3cee3823	0.029079502
125	0x3db3bb05	0.087759055
126	0x3cb878d4	0.022518553
127	0xbdaba861	-0.08381725
128	0xbd9261fe	-0.07147597
129	0xbe077ec9	-0.13231958
130	0x3ba3ae56	0.0049951477
131	0xbc860150	-0.016358048
132	0x3ccb0227	0.0247813
133	0xbda0ca10	-0.0785104
134	0xbe0b4a53	-0.13602571
135	0x3da61d9a	0.08111115
136	0xbd9c4cf0	-0.07631862
137	0xbd8c7728	-0.06858665
138	0xbd219469	-0.039448176
139	0xbb14ac99	-0.0022685884
140	0x3df70df1	0.12063206
141	0xbcf7ad8d	-0.030234123
142	0xbe496c37	-0.19670187
143	0xbd48c2e4	-0.049013987
144	0xbdac3e21	-0.08410288
145	0x3cab03f1	0.020875903
146	0x3d0fecb9	0.035137866
147	0xbe18509d	-0.14874502
148	0xbd1d8180	-0.03845358
149	0x3ce96fe7	0.028495742
150	0x3ded906a	0.115998104
151	0x3e3de194	0.18543082
152	0x3e536c1a	0.20646706
153	0x3e00ff93	0.12597494
154	0x3e2d8c5e	0.16948077
155	0x3dca93af	0.0989145
156	0x3e20bd0a	0.15697113
157	0x3e67567e	0.22591588
158	0x3e989c96	0.29806966
159	0x3e0829e6	0.13297233
160	0xbdb58b69	-0.08864481
161	0xbcd117df	-0.025524078
162	0x3d80a058	0.06280583
163	0x3e213aa5	0.15745027
164	0x3d08b03b	0.03337119
165	0xbe892a4c	-0.26790082
166	0xbe4a4abf	-0.19755076
167	0xbe11188e	-0.14169523
168	0xbe893106	-0.26795214
169	0xbeaac963	-0.3335677
170	0xbe7796f5	-0.2417868
171	0xbdb488a1	-0.088151224
172	0xbe31e81a	-0.17373696
173	0xbe8ae3bb	-0.2712687
174	0xbe5772b4	-0.2103985
175	0xbe28da89	-0.16489615
176	0xbe183112	-0.14862469
177	0xbe165e57	-0.14684425
178	0xbe434b91	-0.19071795
179	0xbd91a1fd	-0.07110975
180	0xbe4147f0	-0.18875098
181	0xbd2580f9	-0.0404062
182	0x3c90569d	0.017619425
183	0x3d842835	0.064529814
184	0x3e2d3b2a	0.169171
185	0xbdac6b2a	-0.084188774
186	0x3e1e6ec0	0.15471935
187	0x3dce2b1a	0.10066815
188	0x3e1a1707	0.15047847
189	0x3e02f6b0	0.12789416
190	0xbb22aa10	-0.0024820603
191	0x3e0b681d	0.13613935
192	0xbbdfe8df	-0.0068331803
193	0x3e3d3059	0.18475474
194	0x3dd59a62	0.10429837
195	0xbc241f33	-0.010017204
196	0x3d23f984	0.04003288
197	0x3bd3a108	0.0064584054
198	0x3d322fc4	0.043502584
199	0x3c9498fa	0.018139351
200	0x3dcf07bf	0.10108899
201	0xbe5a91cd	-0.21344681
202	0x3cd99495	0.026560107
203	0x3e988295	0.29787126
204	0x3e96b8a4	0.29437745
205	0xbe49946b	-0.19685523
206	0xbe91f6c2	-0.28508574
207	0xbd8bc745	-0.06825117
208	0x3e11213f	0.14172839
209	0x3ea47d16	0.32126683
210	0xbe74aa5b	-0.2389311
211	0xbe1d2b0d	-0.15348454
212	0x3d4d7d31	0.05016822
213	0x3d47b3d8	0.048755497
214	0x3c8d5309	0.017251508
215	0xbe690b1f	-0.22758149
216	0xbd169f3f	-0.036772963
217	0x3df1a454	0.11798921
218	0x3e3c76af	0.18404649
219	0xbe0b2159	-0.1358694
220	0xbe967734	-0.2938782
221	0xbcc7ecb3	-0.02440486
222	0x3dab30ac	0.08358893
223	0x3dfa0dfe	0.122097
224	0x3a3bf895	0.00071705255
225	0x3d8fbb77	0.07018178
226	0xbe3827c9	-0.17983927
227	0xbda55e2e	-0.08074604
228	0x3d426899	0.047463033
229	0x3e1a3c37	0.15062033
230	0xbdb2bb0e	-0.08727084
231	0xbe3b289b	-0.18277209
232	0xbdeed3be	-0.1166148
233	0xbe10796e	-0.14108822
234	0xbc180328	-0.009278096
235	0x3bfc31f0	0.0076963827
236	0xbd92bb5e	-0.07164644
237	0xbd8b5e63	-0.06805112
238	0xbdede760	-0.11616397
239	0xbb814291	-0.003944703
240	0x3c091923	0.0083678095
241	0xbe026906	-0.12735376
242	0xbda3a404	-0.07990268
243	0xbdc89631	-0.09794272
244	0xbbe317ad	-0.0069303126
245	0x3c77a859	0.015115821
246	0x3c81215d	0.01576298
247	0x3d581e3d	0.052763212
248	0x3cd36ac3	0.025807744
249	0xbb8cd922	-0.004298345
250	0xbdfd58e4	-0.1237047
251	0xbbafa6a1	-0.00536044
252	0xbd909495	-0.0705959
253	0xbcdefadf	-0.027219234
254	0x3e878a1c	0.26472557
255	0xbea2fae6	-0.31832045

conv2.bias f4 [16]
0	0x3d17ff9e	0.03710901
1	0xbd8dea82	-0.069294944
2	0x3fdd040b	1.7266859
3	0x3c83ee71	0.016104909
4	0xbf183ab7	-0.5946459
5	0xbf7396e0	-0.9515209
6	0x3ed2d6df	0.4117956
7	0x3e10f465	0.14155729
8	0x3e116d46	0.14201841
9	0xbf1f2f7e	-0.6218184
10	0x3f6f17eb	0.9339587
11	0xbf222d6a	-0.63350546
12	0xbe009c89	-0.12559713
13	0xbe43695d	-0.19083162
14	0x3e01c425	0.1267248
15	0xbe81529c	-0.25258338

fc1.weight f4 [120, 400]
0	0x3de0d4f5	0.10978118
1	0x3d57dae9	0.052699003
2	0x3c342f21	0.0109975645
3	0xbcc3c9b4	-0.02389989
4	0xbdc1968e	-0.09452544
5	0x3d1565a9	0.036473904
6	0x3cf667f7	0.030078871
7	0x3ce6451e	0.02810913
8	0xbccd4a3d	-0.025059814
9	0xbd8236bb	-0.06358095
10	0xbd81d890	-0.06340134
11	0xbc1b22d0	-0.009468749
12	0xbd99d61d	-0.07511542
13	0xbb3a0963	-0.0028386943
14	0x3c84ed30	0.016226381
15	0x39bfd7d5	0.00036591166
16	0x3ca2bf66	0.019866657
17	0xbdb16056	-0.08660953
18	0xbcdc87ad	-0.026920164
19	0xbd14aec3	-0.03629948
20	0x3c949925	0.018139431
21	0x3cd54423	0.026033467
22	0xbc402c2f	-0.011729284
23	0x3c77b36d	0.015118462
24	0x3d0ed5f2	0.034872003
25	0x3d1226ee	0.035681657
26	0x3d489160	0.048966765
27	0xb9ffe226	-0.00048805884
28	0xbcf1d03a	-0.029518235
29	0x3d75bc45	0.059994
30	0xbd63d95f	-0.055627223
31	0x3ca0180d	0.019542718
32	0xbbb88003	-0.0056304946
33	0x3cee6531	0.029100986
34	0x3a7d2480	0.0009656623
35	0xbc41e4f8	-0.011834376
36	0xbd8e87cf	-0.06959497
37	0xbd890963	-0.066912435
38	0x3c4552c5	0.01204366
39	0x3d77fae7	0.060542013
40	0xbcb2a69f	-0.021807967
41	0xbd6d82d3	-0.05798609
42	0xbd5ca47a	-0.053867795
43	0xbd424fd6	-0.04743942
44	0x3db7c029	0.089721985
45	0xbdd8b93f	-0.10582208
46	0xbd8c8889	-0.068619795
47	0xbdcd37cf	-0.1002041
48	0xbcf003e2	-0.029298726
49	0x3db0c2ee	0.0863093
50	0xbc0ec2be	-0.008713422
51	0x3c73e1de	0.014885394
52	0x3d13e508	0.036107093
53	0xbc0a5d47	-0.008445091
54	0xbd7c3162	-0.061570533
55	0x3c583cf7	0.013198129
56	0x3d2bc1b7	0.041932788
57	0x3d7a9e2c	0.061186
58	0x3ce6ad7c	0.028158896
59	0xbd440866	-0.047859572
60	0x3dbe6366	0.092963025
61	0x3c795fa0	0.015220553
62	0x3d741b54	0.059596375
63	0x3c243445	0.010022228
64	0xbba62241	-0.0050700014
65	0x3b17877d	0.0023121529
66	0x3da344a1	0.07972074
67	0xbc953362	-0.018212978
68	0x3cbccf0d	0.023047948
69	0xbd168fe4	-0.03675832
70	0x3b56cca0	0.0032775775
71	0xbc0713a0	-0.008244425
72	0x3d11712b	0.035508316
73	0x3b9a001d	0.0046997205
74	0xbd984701	-0.07435418
75	0xbd747f19	-0.059691522
76	0xbd0df7fe	-0.034660332
77	0xbc71bc0f	-0.014754309
78	0xbcddf5f3	-0.027094817
79	0x3c5a4a4e	0.01332338
80	0x3be04b7d	0.0068449364
81	0x3d34ec33	0.04417057
82	0x3cecb1ac	0.028893314
83	0xbb757012	-0.0037450832
84	0x3d298048	0.041382104
85	0x3d50bef5	0.05096336
86	0x3c9e37d1	0.019313725
87	0x3d0bee8f	0.034163054
88	0x3d38aaab	0.045084637
89	0x3d90a267	0.07062226
90	0x3d3467ee	0.044044428
91	0xbb8ea496	-0.0043531163
92	0xbd4e031a	-0.050295927
93	0xbc97229b	-0.018449118
94	0xbce38ff2	-0.0277786
95	0xbc221f00	-0.009895086
96	0xbcd0bcb0	-0.025480598
97	0xbbdecd1b	-0.006799353
98	0x3d21b9d5	0.039483864
99	0x3cefc171	0.029267045
100	0x3ccc393f	0.02492964
101	0x3db3767e	0.08762835
102	0x3d56cb64	0.052440062
103	0xbce28117	-0.027649445
104	0xbd9e63e3	-0.07733896
105	0x3cfd3005	0.030906687
106	0xbc3c0da8	-0.011477865
107	0x3d05978e	0.032615237
108	0xbd35c023	-0.04437269
109	0xbc917ccb	-0.017759701
110	0xbd5ec61a	-0.054388143
111	0xbd9b6075	-0.07586757
112	0xbd49e4fb	-0.04929064
113	0xbcdc9922	-0.026928488
114	0x3d04c220	0.032411695
115	0xbcf987af	-0.030460207
116	0x3ca4b16c	0.020104133
117	0xbd4ff84d	-0.050773907
118	0x3b8dcf41	0.004327685
119	0xbd71103d	-0.058853377
120	0x3cc38064	0.023864932
121	0xbc13e6b4	-0.009027172
122	0xbc9ca389	-0.019120948
123	0xbbd5a6f8	-0.0065201484
124	0xbbc6da7b	-0.0060685254
125	0x3d130dd5	0.035901863
126	0xbbb78dda	-0.005601627
127	0xbceee348	-0.02916111
128	0x3d5544c7	0.052067544
129	0x3c90d9e7	0.017682029
130	0xbd415e71	-0.047209207
131	0xbd1897c6	-0.037254117
132	0xbd63d19c	-0.05561982
133	0x3cfcdbe2	0.030866567
134	0xbcf5ac3e	-0.029989358
135	0xbde78dd8	-0.113063514
136	0xbc974685	-0.018466244
137	0xbd443861	-0.04790533
138	0xbd963c96	-0.073357746
139	0x3c2c931f	0.010533123
140	0xbd9124cc	-0.070870966
141	0xbcfbf50a	-0.030756492
142	0xbd9120ee	-0.07086359
143	0xbd6418de	-0.055687778
144	0x3b9792e3	0.0046256646
145	0xbd1e7ab6	-0.038691245
146	0xbdab9cec	-0.0837954
147	0xbdaf80da	-0.08569498
148	0xbc8dca5d	-0.017308408
149	0xbda004b3	-0.07813396
150	0x3c9a123f	0.018807529
151	0x3d7d051e	0.06177246
152	0x3cca19bb	0.024670472
153	0x3c34ab89	0.011027225
154	0xbd7fda2c	-0.062463924
155	0x3b86766b	0.004103472
156	0x3c3a183f	0.01135832
157	0xbcac5637	-0.021037204
158	0xbd132581	-0.03592444
159	0xbda08122	-0.0783713
160	0xbc48435e	-0.012223093
161	0xbb6c5ce9	-0.003606612
162	0xbacce6c4	-0.0015632738
163	0xbd6bd697	-0.057577696
164	0x3bb41647	0.0054958197
165	0x3d8b0918	0.06788844
166	0xbce64da4	-0.028113194
167	0xbcc17fba	-0.023620475
168	0x3cecd578	0.028910384
169	0x3c5f228e	0.013619078
170	0x3d546a13	0.051858973
171	0xbc1279ac	-0.008940142
172	0xbd8a17c0	-0.06742811
173	0x3bfc36fc	0.0076969843
174	0xbd844dcf	-0.06460153
175	0xbcc8d602	-0.02451611
176	0xbcd0a7b6	-0.025470596
177	0x3c23d5a2	0.0099996645
178	0xbc6d879d	-0.014497665
179	0xbc2b2dbd	-0.010447917
180	0xbd74089e	-0.05957853
181	0xbd6d900f	-0.057998713
182	0x3a297315	0.0006463987
183	0xbdb08566	-0.08619194
184	0xbbbd0e38	-0.0057695173
185	0x3c61b0b2	0.013775038
186	0xbd0a3841	-0.033745054
187	0x3c07f427	0.008297957
188	0xbd04c52f	-0.03241461
189	0x3d57d1c5	0.052690286
190	0x3b49390e	0.0030704173
191	0x3ce61aaf	0.028088896
192	0x3cf9f536	0.030512433
193	0x3cd3640f	0.025804548
194	0x3d643578	0.055715054
195	0xbd6f32d1	-0.05839807
196	0xbd83a4d3	-0.06427922
197	0xbb3d9349	-0.00289269
198	0xbcda73e3	-0.026666587
199	0xbc53a330	-0.012917325
200	0x3c972bf4	0.018453576
201	0xbdbdcc5f	-0.09267496
202	0xbdad34ad	-0.08457313
203	0xbd277c1f	-0.040889855
204	0xbc5d342e	-0.01350121
205	0xbdac3a29	-0.08409531
206	0xbd9b83df	-0.07593512
207	0xbdf170aa	-0.11789067
208	0xbdf73f0e	-0.120725736
209	0xbd201d05	-0.039090175
210	0xbdaf5008	-0.085601866
211	0xbd84a07b	-0.06475922
212	0xbde45b50	-0.11150229
213	0xbdaa90ff	-0.08328437
214	0xbd8044ad	-0.06263099
215	0xbd8614e5	-0.06546954
216	0xbd411670	-0.04714054
217	0xbc02aced	-0.007975799
218	0xbbd7de2e	-0.006587765
219	0x3d264e02	0.040601738
220	0xbc832107	-0.01600696
221	0xbd8e28c4	-0.06941369
222	0x3d5ace66	0.053419493
223	0xbd0b00b0	-0.033936203
224	0x3d6b5fe3	0.05746449
225	0xbbd619db	-0.006533844
226	0x3cce283d	0.025165671
227	0xbd51aa81	-0.051187996
228	0xbcf00d97	-0.029303355
229	0x3c71a3ca	0.014748523
230	0xbd05e83a	-0.03269217
231	0xbd4724d7	-0.048619118
232	0xbd5e13b4	-0.05421801
233	0x3bfbc022	0.007682816
234	0x3d7ff081	0.06248522
235	0xbd09b17e	-0.033616535
236	0xbccbcf11	-0.02487901
237	0xbca685d5	-0.020327488
238	0x3d725de6	0.05917158
239	0x3c7953ea	0.015217761
240	0x3c0cc901	0.008592845
241	0x3cc37877	0.023861153
242	0xbb2cba01	-0.0026355984
243	0xbcf971a6	-0.0304497
244	0xbbf06470	-0.007336192
245	0x3ce69393	0.02814654
246	0x3ca1239e	0.019670304
247	0x3d6e9b03	0.0582533
248	0x3c334921	0.010942728
249	0x3d9ee987	0.077593856
250	0xbd232f7a	-0.0398402
251	0xbc82b2c4	-0.015954383
252	0x3c7d4c1c	0.01546004
253	0x3cb78691	0.022403033
254	0xbd04bfb8	-0.0324094
255	0xbd8aa990	-0.06770623

fc1.bias f4 [120]
0	0xbc12067d	-0.00891268
1	0xbc83360e	-0.016016986
2	0x3d322743	0.043494474
3	0xbac27f4f	-0.0014838966
4	0x3bc5ae67	0.0060327533
5	0x3e5bec33	0.21476822
6	0x3ce94c7b	0.028478852
7	0x3e2c58ff	0.16830824
8	0xbd6a2d23	-0.057171952
9	0x3d0035dc	0.031301364
10	0x3ce2d3eb	0.027688941
11	0xbb561059	-0.0032663553
12	0x3b95e3ed	0.00457429
13	0x3e82a8ec	0.25519502
14	0xbd134e5f	-0.035963412
15	0xbd21aae8	-0.03946963
16	0xbd1a0569	-0.037602816
17	0xbd15a482	-0.03653384
18	0xbda8340f	-0.082130544
19	0xbd590e51	-0.05299217
20	0xbc91045c	-0.017702274
21	0x3da37947	0.07982116
22	0xbc6a8ac1	-0.014315308
23	0x3c46275a	0.012094343
24	0x3e8cbabc	0.27486217
25	0x3e8eed7f	0.2791557
26	0xbd24fb3d	-0.040278662
27	0x3dc52d05	0.096277274
28	0x3cc3cbe0	0.023900926
29	0xbd91574f	-0.07096731
30	0x3dac7c5e	0.08422159
31	0xbcd17772	-0.025569651
32	0xbd429d3b	-0.047513228
33	0xbdb3e925	-0.08784703
34	0xbd919e51	-0.071102746
35	0x3d5042ac	0.050844833
36	0x3cf2f84f	0.029659418
37	0x3db76c76	0.08956234
38	0x3d8345cd	0.06409798
39	0xbc876639	-0.016528236
40	0xbc543308	-0.01295162
41	0xbd13800a	-0.03601078
42	0x3d04e2be	0.0324428
43	0x3dd320e8	0.10309011
44	0x3dd063b4	0.10175267
45	0x3d6a96fe	0.057272904
46	0x3e019db6	0.12657818
47	0x3e1af7ba	0.15133563
48	0xbcdb7369	-0.02678843
49	0x3d38f185	0.045152206
50	0x3bb380d9	0.0054780063
51	0xbc8bec4d	-0.01708045
52	0x3dc2d701	0.09513665
53	0x3da5e6e1	0.08100677
54	0x3d227a2f	0.039667305
55	0x3d1f0c1e	0.038829915
56	0x3e0ad66e	0.13558361
57	0x3bd06e62	0.006360815
58	0xbe4eda2a	-0.2020041
59	0xbd8a51ee	-0.06753908
60	0xbdeabb34	-0.114614874
61	0x3d5576a8	0.052115113
62	0x3de7c05d	0.11315987
63	0x3e5037f9	0.20333852
64	0xbd4cd000	-0.05000305
65	0x3d3729e5	0.044717688
66	0xbd20f0cb	-0.039292138
67	0x3e4e00c3	0.20117478
68	0xbc8e8a05	-0.017399797
69	0x3e1d16e6	0.15340766
70	0x3c44d147	0.012012786
71	0x3e0d4dcd	0.1379921
72	0xbd4b8077	-0.04968306
73	0x3da7939d	0.08182452
74	0xbdfd82b6	-0.12378447
75	0xbc49f64f	-0.012326791
76	0x3d25dc3b	0.04049323
77	0x3df6ce04	0.12051013
78	0xbd57f2da	-0.052721836
79	0xbd42bf92	-0.047545977
80	0x3e0a9789	0.13534369
81	0x3c0c1f68	0.00855241
82	0x3d0aaeb2	0.03385801
83	0xbdda3e06	-0.10656361
84	0x3e2c6d6f	0.1683862
85	0xbdce12f9	-0.100622125
86	0x3de32dca	0.11092718
87	0x3cac777f	0.021053074
88	0x3dd93fa6	0.10607843
89	0xbdd9838a	-0.10620792
90	0x3c965550	0.018351227
91	0x3cfd4a47	0.030919207
92	0x3b305cdc	0.0026910817
93	0x3daf1a55	0.08549944
94	0xbd8268aa	-0.06367619
95	0x3e5baf1d	0.21453519
96	0x3cd5ae06	0.026083957
97	0xbcac14d8	-0.021006033
98	0xbbf52980	-0.007481754
99	0x3e76b9ee	0.24094364
100	0xbe6e2ef6	-0.23260102
101	0xba4e0dcb	-0.00078603317
102	0xbe03b809	-0.12863173
103	0x3c843e3a	0.016142953
104	0x3e76ddab	0.24107997
105	0x3dd2e649	0.1029783
106	0x3caa5f1a	0.020797301
107	0xbbcb6e71	-0.006208234
108	0xbd11fd59	-0.035642
109	0x3e0b3dbe	0.13597772
110	0x3eb308da	0.3496769
111	0x3d8c2ad0	0.06844103
112	0xbb7c9512	-0.0038541001
113	0xbc2d0bf7	-0.010561935
114	0x3da6fbd6	0.08153503
115	0xbdbb4e4e	-0.09145795
116	0xbe1457f5	-0.14486678
117	0x3dfedf7c	0.1244497
118	0xbcacecaa	-0.021108944
119	0x3cda10e9	0.026619392

fc2.weight f4 [84, 120]
0	0x3d761f6e	0.060088567
1	0xbc3aaec3	-0.0113942055
2	0xbcb9f1cf	-0.022698311
3	0xbd94c515	-0.07264153
4	0xbd47447c	-0.048649296
5	0xbd294712	-0.041327544
6	0x3daabf71	0.08337296
7	0xbd394757	-0.04523405
8	0x3cd8e4c9	0.02647628
9	0x3dff4708	0.1246472
10	0xbd0521be	-0.032502882
11	0xbdb5751a	-0.08860226
12	0x3d09f43e	0.033680193
13	0xbd087145	-0.033311147
14	0xbdd0e01d	-0.10198996
15	0x3c924020	0.017852843
16	0x3d8115d4	0.063029915
17	0xbd9496be	-0.07255314
18	0xbc9801df	-0.01855558
19	0xbd5e484e	-0.054268174
20	0xbd0cce7b	-0.034376603
21	0xbcdda109	-0.027054327
22	0x3d7103fe	0.058841698
23	0x3d4df4b3	0.05028219
24	0xbc85c4ef	-0.016329257
25	0x3d76bea1	0.06024039
26	0x3dae37bd	0.08506725
27	0x3c43c002	0.011947634
28	0x3d3882fa	0.045046784
29	0xbda02f38	-0.07821506
30	0x3d58ea85	0.05295803
31	0x3dc2d434	0.09513131
32	0xbdc3bf7d	-0.09558008
33	0x3db86c61	0.09005047
34	0xbd98d3dc	-0.07462284
35	0xbdede75a	-0.116163924
36	0xbdef5f4c	-0.11688098
37	0xbddc7275	-0.107640184
38	0xbda24e07	-0.07925039
39	0x3d2e8346	0.04260566
40	0xbd325513	-0.043538164
41	0x3cba0d02	0.02271128
42	0x3ce7bd13	0.0282884
43	0x3c2d19e4	0.010565255
44	0x3d771d5d	0.060330737
45	0xbd8c9aff	-0.06865501
46	0xbcb78f0a	-0.022407074
47	0xbd2f1f2b	-0.042754333
48	0x3d84f2a9	0.06491596
49	0xbaf7df4d	-0.0018911153
50	0xbd548679	-0.051886056
51	0xbd406e56	-0.046980225
52	0x3d342504	0.043980613
53	0xbd0d3060	-0.034469962
54	0x3da259bb	0.07927271
55	0xbd961db8	-0.07329887
56	0x3db83e52	0.08996262
57	0x3d9c58a2	0.07634093
58	0xbe05550f	-0.13020729
59	0x3d769ba8	0.06020704
60	0xbddd3e4c	-0.10802898
61	0x3d4f816e	0.050660543
62	0xbd1cd3fa	-0.038288094
63	0xbdea824f	-0.11450636
64	0xbc33fb56	-0.010985216
65	0xbd4a39ca	-0.04937152
66	0xbc589746	-0.01321966
67	0x3d40b3a3	0.047046315
68	0xbd634f0b	-0.055495303
69	0xbd9f69ee	-0.07783876
70	0x3d97e13a	0.074160054
71	0xbd63ee62	-0.05564726
72	0x3c2005a0	0.009766966
73	0xbdf78dcd	-0.12087593
74	0x39822cd6	0.00024828938
75	0xbc3d4cdf	-0.011553972
76	0x3bf4cfcd	0.007471061
77	0xbda1748e	-0.07883559
78	0x3d484771	0.048896257
79	0x3d03af50	0.032149613
80	0xbdb119fa	-0.08647533
81	0xbd48bdc1	-0.04900909
82	0xbd711060	-0.058853507
83	0x3c841fc2	0.016128425
84	0xbb8ad225	-0.004236477
85	0xbab3c807	-0.0013716229
86	0x3d7c61f6	0.06161686
87	0xbe09a2c1	-0.13440992
88	0xbd1565b8	-0.03647396
89	0xbb63bb0e	-0.0034748944
90	0xbd3c3e75	-0.045958
91	0xbd3ec4e5	-0.046574492
92	0x3d55927e	0.05214166
93	0xbdacfde7	-0.084468655
94	0x3d308974	0.043099836
95	0x3d8bb5ae	0.06821762
96	0x3c9ef5cc	0.019404314
97	0xbb8a68b4	-0.0042239074
98	0xbdc4cb1c	-0.096090525
99	0x3d5721c7	0.052522447
100	0x3e2ac044	0.16674906
101	0xbce98cf7	-0.0285096
102	0xbda6de75	-0.08147899
103	0xbdb145e4	-0.08655909
104	0xbd999147	-0.074984126
105	0xbd8b587e	-0.06803988
106	0x3d4d1604	0.050069824
107	0x3dab04c3	0.083505176
108	0xbd2a777d	-0.04161786
109	0xbcb1264f	-0.021624712
110	0x3c7f17d4	0.015569646
111	0xbd8f1bb4	-0.06987706
112	0x3d620054	0.055176094
113	0xbd4736a6	-0.0486361
114	0xbddacb81	-0.106833465
115	0xbcbbb5e2	-0.022913877
116	0xbd9c289e	-0.076249346
117	0xbdd9fbbe	-0.10643719
118	0x3cb7afc1	0.022422673
119	0x3d49f5ab	0.049306553
120	0x3ddec980	0.10878277
121	0x3d8a4e2f	0.067531936
122	0xbe00f735	-0.12594302
123	0xbd67a3f1	-0.05655283
124	0x3d7516f5	0.059836347
125	0x3ca919f7	0.020642264
126	0x3dac01c5	0.08398775
127	0x3c087ed8	0.008331023
128	0xbd0fda0f	-0.035120066
129	0x3a88cc18	0.0010436801
130	0xbcb4323c	-0.02199661
131	0xbd809289	-0.06277949
132	0xbd35178f	-0.04421192
133	0xbda8493f	-0.082170956
134	0xbd022771	-0.031775896
135	0xbc983503	-0.018579965
136	0xbdf82b57	-0.121176414
137	0xbcdd2f77	-0.027000172
138	0xbe07d3a6	-0.13264331
139	0xbd3f24f3	-0.046666097
140	0xbdd389a8	-0.1032899
141	0x3ad2a94d	0.0016072184
142	0xbcf03345	-0.029321322
143	0xbd1b858c	-0.037969157
144	0xbd2f85e1	-0.042852286
145	0x3e0b998c	0.13632792
146	0x3d658345	0.05603339
147	0xbd60fd05	-0.0549288
148	0x3dc6e2d2	0.09711231
149	0x3c69ebf5	0.014277448
150	0xbdc07a22	-0.09398295
151	0x3cdd24bc	0.026995055
152	0x3dfa1eb3	0.12212887
153	0xbd9be1c1	-0.076114185
154	0xbdae0bf1	-0.084983714
155	0xbe0c4013	-0.13696317
156	0x3c1dd63f	0.0096336
157	0x3d862627	0.06550246
158	0x3dcbb299	0.09946174
159	0xbdd7fbf9	-0.10546107
160	0xbdb94822	-0.09046961
161	0xbe165890	-0.14682221
162	0xbc4aa431	-0.012368248
163	0xbd6f231b	-0.05838309
164	0xbd762beb	-0.060100477
165	0xbc728d14	-0.014804143
166	0x3e43fe84	0.19140059
167	0x3da17688	0.07883936
168	0xbdbd5328	-0.092443764
169	0x3d490940	0.049081087
170	0xbc9ead1e	-0.019369658
171	0xbdc8b46a	-0.09800036
172	0x3db8ed6f	0.09029662
173	0xbd85940f	-0.065223806
174	0x3d4f8f9a	0.05067406
175	0xbe04bd3e	-0.12962815
176	0xbd90e510	-0.0707494
177	0xbd145b94	-0.03622015
178	0x3b9f7055	0.004865686
179	0xbe005109	-0.12530912
180	0xbdbfff89	-0.09374911
181	0x3c80282b	0.015644154
182	0x3e1da8c7	0.15396415
183	0x3c0633c2	0.008191051
184	0x3d5c0d4a	0.05372361
185	0xbdbdb386	-0.09262757
186	0xbbab79d3	-0.0052330284
187	0x3d7fb4fe	0.062428467
188	0xbbd129c0	-0.006383151
189	0x3e52ef47	0.2059909
190	0xbb0aa20c	-0.0021153716
191	0x3e31461c	0.17311901
192	0xbc2e2e89	-0.010631212
193	0xbd3493ec	-0.04408638
194	0xbd8c8718	-0.068617046
195	0x3d1962bc	0.037447676
196	0xbd8ce5bf	-0.06879758
197	0xbcaaa50b	-0.020830652
198	0xbc912245	-0.017716536
199	0xbd1196f2	-0.035544343
200	0x3e288f03	0.16460805
201	0x3d5ceb70	0.05393547
202	0xbde86b59	-0.113486
203	0x3c08e45a	0.0083552245
204	0x3ce8f66c	0.028437816
205	0xbe05c483	-0.13063245
206	0x3d65edef	0.056135114
207	0xbe1bc90c	-0.15213412
208	0x3cb09821	0.021556916
209	0x3e2af974	0.16696721
210	0x3b940430	0.0045171008
211	0xbdc19a51	-0.09453262
212	0xbceea028	-0.029129103
213	0x3dfe53da	0.12418337
214	0xbe1505b6	-0.1455296
215	0x3c675283	0.014118793
216	0xbc8fc58b	-0.01755025
217	0xbdbdcd92	-0.09267725
218	0xbd2b15cd	-0.041768838
219	0xba471f72	-0.0007595933
220	0xbe0b0bab	-0.1357867
221	0xbcb9621c	-0.02262979
222	0xbd51c35f	-0.05121171
223	0x3d9b020d	0.075687505
224	0x3d40fc6b	0.047115725
225	0x3c4a2fe6	0.012340521
226	0x3b780e5d	0.0037850358
227	0x3c36b015	0.01115038
228	0x3d0f4e32	0.034986682
229	0x3e2266eb	0.15859573
230	0x3d2a4c4f	0.04157668
231	0x3dc2af74	0.09506121
232	0xbddee2ca	-0.108831
233	0x3d4d652c	0.050145313
234	0x3cff0b7b	0.031133404
235	0xbc15f8be	-0.009153543
236	0x3d4c377d	0.049857605
237	0xbdf03de2	-0.11730553
238	0xbc625320	-0.013813764
239	0xbdb6ebd8	-0.089317024
240	0x3dee64a5	0.1164029
241	0xbe266d56	-0.16252646
242	0x3b034327	0.002002904
243	0x3de0c472	0.10974969
244	0x3e0298df	0.12753628
245	0xbd129bc9	-0.0357931
246	0xbdbe73ad	-0.09299407
247	0xbdb0fd58	-0.086420715
248	0xbdb660f8	-0.08905214
249	0x3db8432b	0.08997186
250	0x3daac188	0.083376944
251	0x3e5340ed	0.20630236
252	0xbd8418af	-0.064500205
253	0xbc899c37	-0.016798122
254	0x3e0654b1	0.13118245
255	0x3bbb1789	0.0057095927

fc2.bias f4 [84]
0	0xbd7dfb2f	-0.062007125
1	0x3c50d66c	0.012746435
2	0x3e001688	0.12508595
3	0xbb77e650	-0.0037826486
4	0xbd71e8dd	-0.059059966
5	0xbd136c61	-0.03599203
6	0x3da59048	0.0808416
7	0x3b54aa3a	0.0032450096
8	0x3e3c1ef7	0.18371187
9	0x3e83925c	0.256976
10	0xbd012b5d	-0.031535495
11	0xbd9cdd7d	-0.07659433
12	0xbda2aff0	-0.07943714
13	0xbe812a13	-0.25227413
14	0xbca57231	-0.020196052
15	0x3e4af97a	0.1982173
16	0x3d3ac24e	0.04559546
17	0x3eda9463	0.42691335
18	0x3c3db078	0.011577718
19	0x3df0ce19	0.1175806
20	0xbd99cabf	-0.07509374
21	0xbde9d91a	-0.11418362
22	0x3e83c8da	0.25739175
23	0xbdbc4e9a	-0.091946796
24	0xbd8637a7	-0.065535836
25	0x3dc1e653	0.09467759
26	0xbdbea990	-0.09309685
27	0x3e3bf4cd	0.18355103
28	0xbd3aba8c	-0.04558806
29	0x3eb9f5c7	0.36320326
30	0xbd436712	-0.047705717
31	0x3d00213e	0.031281702
32	0x3e90695b	0.2820538
33	0x3eb71df6	0.35765046
34	0x3edc7760	0.43059826
35	0x3eca4f81	0.39513782
36	0xbdf4a4c1	-0.11945487
37	0x3d4e285b	0.050331455
38	0xbc8f1bad	-0.017469252
39	0xbde7af53	-0.11312737
40	0x3d8636bc	0.065534085
41	0x3e1c0287	0.15235339
42	0x3cbdac9c	0.023153596
43	0x3cda5877	0.026653511
44	0xbb892f2b	-0.004186531
45	0x3d9711fa	0.07376476
46	0x3e399549	0.18123354
47	0x3deed7f7	0.11662286
48	0x3d3a753c	0.04552196
49	0x3ddf80a0	0.10913205
50	0xbdf74f05	-0.12075619
51	0xbdd83b47	-0.10558181
52	0x3e28a326	0.16468486
53	0xbd6e6e3b	-0.058210593
54	0x3eb2ac06	0.34896868
55	0xbbdbecd9	-0.006711584
56	0xbd7a7d72	-0.06115479
57	0x3cca1269	0.024666982
58	0x3defd4b8	0.11710495
59	0x3d73dd21	0.059537057
60	0x3d98d810	0.07463086
61	0xbda42bee	-0.080161914
62	0x3eb1818f	0.34669158
63	0x3dbe30f3	0.0928668
64	0x3eb2cedc	0.34923446
65	0x3cb4f7d8	0.022090837
66	0x3f2dc888	0.6788411
67	0xbe35d20b	-0.17755906
68	0xbd2025a8	-0.03909841
69	0xbdd64bb3	-0.10463657
70	0x3e99c62f	0.30034015
71	0xbd709846	-0.05873897
72	0xbdb0c82c	-0.0863193
73	0xbd219c4c	-0.039455697
74	0x3d1d274c	0.038367555
75	0x3eb3ef6b	0.351436
76	0x3e35f2e5	0.17768438
77	0x3dbfdd97	0.09368437
78	0xbdc86c32	-0.097862616
79	0x3ed5fb90	0.4179349
80	0x3da8be38	0.08239406
81	0x3e1b3962	0.15158609
82	0x3cf335ad	0.02968868
83	0x3dd4eb5a	0.10396452

fc3.weight f4 [10, 84]
0	0x3d01326f	0.031542238
1	0x3e468481	0.19386484
2	0xbe09d5ff	-0.1346054
3	0x3b5f82cc	0.003410506
4	0x3cc711dd	0.02430051
5	0x3db2cd9e	0.087306246
6	0x3e5cb4a7	0.21553288
7	0xbe553ef8	-0.20824802
8	0xbdea1c8d	-0.11431227
9	0x3d98fe37	0.07470363
10	0x3bb648a1	0.0055628573
11	0x3d72f927	0.05931964
12	0x3e5edaa1	0.21763088
13	0x3e093247	0.13398086
14	0xbd674a32	-0.056467243
15	0x3df9e37b	0.122015916
16	0xbd02de9f	-0.03195059
17	0xbe052b23	-0.13004737
18	0x3d3beec4	0.045882
19	0xbd6ef50a	-0.058339156
20	0x3d799cb9	0.060940478
21	0xbd3ee1b4	-0.046601966
22	0x3e86753d	0.2626132
23	0x3dc50e93	0.096219204
24	0xbd46b33a	-0.048510768
25	0xbe193eba	-0.14965335
26	0xbd01f9da	-0.031732418
27	0x3dff2298	0.1245777
28	0xbc2e1cfe	-0.010627029
29	0x3df4116d	0.11917386
30	0xbde3b0d7	-0.11117714
31	0x3ce0a5c2	0.02742279
32	0x3e51065e	0.20412585
33	0x3d0ab8d4	0.033867672
34	0xbb053b2f	-0.0020329466
35	0xbe180467	-0.1484543
36	0xbdb0a355	-0.08624903
37	0x3ddc6741	0.107618816
38	0xbddb17bb	-0.106978856
39	0x3dac9748	0.08427292
40	0xbd907072	-0.07052697
41	0xbdf8978c	-0.1213828
42	0xbd3ca242	-0.04605318
43	0xbde054d0	-0.10953677
44	0xbd924ec0	-0.071439266
45	0xbcbf6abd	-0.023366326
46	0xbb520fcc	-0.0032052873
47	0xbd858bf5	-0.06520835
48	0x3df4e9b8	0.11958641
49	0x3ca6273b	0.020282378
50	0x3e8d181a	0.2755745
51	0x3dc38d28	0.09548408
52	0x3bedd492	0.0072580064
53	0x3e1883b2	0.14893988
54	0xbd432436	-0.047641955
55	0x3ddbc779	0.10731406
56	0x3bf4ee22	0.0074746767
57	0x3e0cf1fb	0.13764183
58	0xbcfbb7d2	-0.0307273
59	0x3e41c1d7	0.189216
60	0xbd9db0bc	-0.07699725
61	0x3e14ab40	0.14518452
62	0x3e56dddc	0.2098307
63	0xbe02c6aa	-0.12771097
64	0xbe27dfb1	-0.16393925
65	0x3e5c9e33	0.21544723
66	0xbef0de92	-0.47044808
67	0xbcabe0ec	-0.020981275
68	0xbe0f7a86	-0.14011583
69	0xbda70db3	-0.0815691
70	0xbde1dd28	-0.1102851
71	0xbdeab59a	-0.11460419
72	0xbd071ed1	-0.032988373
73	0xbdd0e734	-0.102003485
74	0x3c9f5713	0.0194507
75	0xbe0604b3	-0.1308773
76	0xbdea1dd7	-0.11431473
77	0xbe6c936f	-0.23103116
78	0x3e985056	0.2974879
79	0xbe332abf	-0.17496775
80	0x3c1109bb	0.008852418
81	0xbdc13935	-0.094347395
82	0xbd4c6806	-0.049903892
83	0x3d2efe2d	0.04272287
84	0x3cf491f4	0.029854752
85	0x3d9a7de5	0.07543544
86	0xbdb3d21f	-0.08780312
87	0x3cc2b05f	0.02376574
88	0x3d17fcee	0.037106447
89	0x3ca955b4	0.02067075
90	0x3b24c172	0.0025139716
91	0x3c898a35	0.016789535
92	0xbe39591f	-0.18100403
93	0x3cd6655c	0.026171379
94	0x3cc59d9e	0.02412301
95	0x3ca94454	0.020662464
96	0x3dcfefa1	0.101531275
97	0x3e04cfad	0.12969847
98	0xbd748f1c	-0.059706792
99	0xbec73ab1	-0.38911965
100	0xbd643c1e	-0.055721395
101	0xbe11c823	-0.14236502
102	0xbd9c6e30	-0.07638204
103	0xbd5ef504	-0.054432884
104	0x3e1037f4	0.14083844
105	0x3cdf7739	0.02727853
106	0xbdd5a566	-0.10431938
107	0xbe2bf2e3	-0.16791873
108	0xbddcc81b	-0.107803546
109	0xbe25a295	-0.16175301
110	0x3d973068	0.0738228
111	0xbe1489ff	-0.14505766
112	0x3e1e3c45	0.15452679
113	0xbe30d43b	-0.1726846
114	0x3c36ccd5	0.011157234
115	0xbd93688e	-0.071976766
116	0xbe3ee7ea	-0.18643156
117	0xbde81b68	-0.11333352
118	0xbe4b8b25	-0.19877298
119	0xbebcb05d	-0.36853305
120	0x3df9ac06	0.12191014
121	0x3dc87b28	0.09789115
122	0x3d6e1cf8	0.058133096
123	0xbc03cabb	-0.00804394
124	0x3d622ba0	0.055217385
125	0xbe3dfb16	-0.18552813
126	0x3e021319	0.12702598
127	0x3e6822dd	0.2266955
128	0xbde62c06	-0.112388656
129	0x3e13362f	0.14376138
130	0x3e089c99	0.13340987
131	0xbc57d749	-0.013173887
132	0xbe92d52a	-0.28678256
133	0x3e75b5a1	0.23995067
134	0xbdcc5fec	-0.09979233
135	0x3e403973	0.18771915
136	0xbe810652	-0.25200135
137	0x3e28b67e	0.16475865
138	0xbda88441	-0.082283504
139	0x3e21edf5	0.1581343
140	0x3e1fc45b	0.15602247
141	0x3ee0d3d1	0.43911603
142	0x3e3ad112	0.18243816
143	0xbe7aafab	-0.24481075
144	0xbd8f8714	-0.07008186
145	0x3e38cdc2	0.1804724
146	0x3cc9a122	0.024612967
147	0x3e8feaf7	0.2810895
148	0xbe2cf885	-0.16891678
149	0x3de194dd	0.110147215
150	0xbea03753	-0.3129221
151	0x3e8ce050	0.27514887
152	0x3e720d4a	0.23637882
153	0x3e7a1068	0.24420321
154	0xbc1a012d	-0.009399694
155	0x3e152fd2	0.14569023
156	0x3d88a80e	0.06672679
157	0xbceacf2c	-0.02866324
158	0xbdae8989	-0.085223265
159	0xbdc803a2	-0.09766318
160	0xbe934a09	-0.28767422
161	0x3e227b68	0.15867388
162	0xbcb3187e	-0.021862265
163	0x3dffc609	0.12488944
164	0xbd5ca427	-0.053867485
165	0x3e1474e9	0.14497723
166	0xbbb9f322	-0.0056747356
167	0xbe338917	-0.17532764
168	0xb91f4dac	-0.00015192357
169	0xbdd68346	-0.10474257
170	0x3e1a6bd8	0.15080202
171	0xbd7758a4	-0.06038727
172	0xbd018f98	-0.031631082
173	0x3cf04cd7	0.029333515
174	0x3d0af0c7	0.03392103
175	0x3df2aaa2	0.11848952
176	0x3e2d1f06	0.16906366
177	0x3e5161d3	0.20447473
178	0x3d0674bd	0.032826174
179	0x3db29f2d	0.087217666
180	0xbdcfe657	-0.10151356
181	0xbd997bec	-0.07494339
182	0xbdcfa7d7	-0.10139435
183	0xbd7e0bcf	-0.06202298
184	0x3c57703c	0.013149317
185	0xbdbffed3	-0.09374776
186	0xbcd70958	-0.026249573
187	0x3dc93ce7	0.09826069
188	0xbe8ba134	-0.27271426
189	0xbd833781	-0.06407071
190	0x3e4bd1b6	0.19904217
191	0x3e88cd90	0.26719332
192	0x3ca10f38	0.019660577
193	0xbdd62739	-0.104567
194	0x3d7e43a1	0.062076215
195	0x3da58033	0.08081093
196	0xbe1079e5	-0.14108999
197	0x3e4047f3	0.18777446
198	0xbe655dcd	-0.22399063
199	0x3e57cc3c	0.21074003
200	0x3e835273	0.2564884
201	0xbd916587	-0.07099443
202	0x3e0614d2	0.1309388
203	0x3b537266	0.0032264232
204	0xbdf89a57	-0.12138813
205	0xbd06e5f5	-0.032934148
206	0x3e397876	0.18112358
207	0xbd8c4052	-0.068482056
208	0xbd547d37	-0.051877227
209	0xbb21f2e1	-0.0024711417
210	0xbd2293b2	-0.039691634
211	0xbda3882f	-0.07984959
212	0x3d911bf5	0.070854105
213	0x3e12c434	0.14332658
214	0xbabec54f	-0.0014554652
215	0xbe2f972a	-0.17147508
216	0x3ddb3064	0.10702589
217	0xbe62632c	-0.22108144
218	0x3e3abd0d	0.1823618
219	0xbe354fa0	-0.17706156
220	0xbc8cba28	-0.01717861
221	0xbcfa9222	-0.03058726
222	0x3e7ccd6a	0.24687734
223	0xbdd16dde	-0.10226034
224	0x3e2ad6df	0.1668353
225	0xbd924a2e	-0.07143055
226	0xbda8fa77	-0.082508974
227	0x3e332a05	0.17496498
228	0xbe43b5a1	-0.19112255
229	0xbc968dd1	-0.01837817
230	0xbd734032	-0.059387393
231	0xbd5ba720	-0.05362618
232	0x3e458fae	0.1929309
233	0xbdb4e5bb	-0.0883288
234	0x3e6a2a21	0.22867633
235	0x3e15573f	0.14584063
236	0x3e1a5e78	0.150751
237	0x3d1c0d5f	0.03809869
238	0x3df263da	0.118354514
239	0x3cc4c9f0	0.024022073
240	0x3ce35bf5	0.02775381
241	0xbe037686	-0.12838182
242	0x3e23fb15	0.16013749
243	0xbd05b1e5	-0.032640357
244	0x3e4770f9	0.1947669
245	0x3c16a128	0.009193696
246	0x3da9bced	0.08287988
247	0xbdf52ae2	-0.1197107
248	0x3d48ed74	0.049054578
249	0xbd5cf414	-0.05394371
250	0xbcf0dc3c	-0.029401891
251	0x3e80970e	0.25115246
252	0xbe25ba08	-0.16184247
253	0xbe311376	-0.1729258
254	0x3d8453b7	0.0646128
255	0xbba113a9	-0.0049156738

fc3.bias f4 [10]
0	0xbe00e02f	-0.12585519
1	0xbf45d1a4	-0.7727301
2	0x3dc87a2d	0.09788928
3	0x3f03c5a9	0.5147348
4	0x3f27f11d	0.65602285
5	0xbce9fecc	-0.02856388
6	0x3d899004	0.06716922
7	0xbe1b337c	-0.15156358
8	0x3ee0510f	0.43811843
9	0xbea794ba	-0.32730657
